data.pth (torch, 6079 bytes, 6 tensors)

l1.weight f4 [8, 70]
-0.22638442 0.46952325 0.23798132 0.8859936 -0.31806678 0.9080676 -0.31548938 -0.30475646
-0.044797335 -0.37748933 -0.11673522 0.4557271 -0.13002223 0.1839926 -0.27621335 -0.16868249
0.6438663 -0.3756018 -0.05246799 -0.278843 -0.4321589 -0.2785007 -0.29637268 -0.61021036
0.5366007 0.41004354 0.03211988 0.55209565 0.5200282 0.19428805 -0.35856348 0.4691265
-0.31812495 -0.5704314 0.27119225 -0.49407658 0.8804028 -0.16242659 0.33942717 -0.6730797
-0.060911126 0.38329375 -0.025347374 -0.25954157 -0.5016825 -0.039832927 -0.074418075 -0.06065179
0.72335064 0.57943344 0.38587734 -0.2086284 -0.24624176 0.80053234 -0.03043359 0.6177897
-0.36019838 -0.41501117 0.30885902 0.16651872 -0.8574165 -0.54396105 -0.1378395 -0.24489574
-0.1693365 0.004469346 -0.39351228 -0.4436301 0.30084863 0.32108352 0.00096374087 -0.092796594
0.4724118 -0.51046795 -0.1604147 -0.16348587 0.546822 0.2991684 0.0096162995 0.3953875
0.4742763 -0.5077301 0.1636367 0.18693183 0.5283961 0.67950016 -0.59998167 0.33690706
-0.07812449 0.08704794 0.08173459 0.37780306 0.28795946 0.5375236 -0.5045749 -0.50067717
-0.29412454 -0.4948626 -0.5047497 0.3665102 0.369944 -0.40589067 0.52079713 0.58611673
0.20927586 0.7610778 -0.29732475 0.4236548 -0.13184237 0.48339832 0.07685993 0.34603631
0.36944297 0.1605415 0.5387865 0.47052333 0.6098186 0.41218337 0.5769181 0.13015
-0.016087538 0.48169854 -0.02971017 -0.5721727 -0.1507304 -0.50393754 0.07236982 0.45008272
-0.51467246 0.37762535 -0.50826585 -0.17177618 0.0010461363 0.58112276 0.38838232 0.12383251
0.4310635 0.67310923 0.39718375 -0.36075404 0.32892817 0.24153316 0.45130986 0.8453938
-0.21872224 1.0970665 0.12633085 -0.05452925 -0.17921965 -0.2741189 0.727863 -0.45638737
0.13443932 0.17375286 0.6515591 0.24875538 -0.17641105 0.14433901 -0.06887071 0.16445139
-0.1301011 -0.06420158 0.30861104 0.39417017 -0.47347814 0.31971934 -0.017186802 0.40084937
0.33696213 0.17209277 0.14553858 -0.09534686 0.47536445 0.43269798 0.6335707 1.2388879
1.0887861 0.65620935 -0.2073686 0.9009003 0.24913366 0.39538616 0.21567972 0.1761643
-0.40258375 -0.11875844 0.7013256 0.7603281 -0.15023655 -0.76209885 -0.08013809 -0.17065813
-0.32664013 0.78396887 -0.2779823 0.29891524 -0.3179299 0.3078935 0.07018069 0.46807566
0.22463822 0.17509322 -0.07600381 0.7013173 0.2956373 0.18816474 0.5331231 -0.3764867
0.5523331 -0.08053293 -0.34598917 0.07754736 0.13217095 0.5709256 0.6280824 0.649729
0.4837684 0.2713175 0.32731596 0.27971128 0.31035826 -0.3489441 0.3983942 -0.005454595
0.44050997 0.38225618 -0.67828596 0.22186932 0.3095831 -0.14917731 0.4073976 0.30797702
0.064308025 -0.51135087 -0.35581154 0.6511757 -0.16021948 0.5816916 0.68958545 0.08980451
0.011745591 -0.3048054 -0.36843032 -0.50765043 0.25765857 -0.13735172 0.6666255 0.4836313
-0.11805628 -0.43442708 0.019302763 0.23541288 -0.084943764 -0.014864019 0.4294859 0.16249931
00000000: 51d1 67be 5a65 f03e 60b1 733e 7ad0 623f
00000010: a6d9 a2be 1e77 683f d387 a1be 0a09 9cbe
00000020: 697d 37bd 4846 c1be e012 efbd 1055 e93e
00000030: 8c24 05be 8e68 3c3e d66b 8dbe 1abb 2cbe
00000040: 6cd4 243f e14e c0be ade8 56bd 82c4 8ebe
00000050: ee43 ddbe a597 8ebe 29be 97be bf36 1cbf
00000060: aa5e 093f 3af1 d13e 2390 033d 2456 0d3f
00000070: 9120 053f 72f3 463e a295 b7be 5931 f03e
00000080: 46e1 a2be cb07 12bf b6d9 8a3e 9bf7 fcbe
00000090: 1462 613f 2853 26be 66c9 ad3e f44e 2cbf
000000a0: f27d 79bd 143f c43e 4ca5 cfbc a2e2 84be
000000b0: 446e 00bf da27 23bd 8168 98bd 036e 78bd
000000c0: 822d 393f c055 143f b791 c53e afa2 55be
000000d0: cd26 7cbe b0ef 4c3f dd4f f9bc 7727 1e3f
000000e0: ec6b b8be 587c d4be c522 9e3e e283 2a3e
000000f0: a67f 5bbf 0841 0bbf cc25 0dbe f3c5 7abe
00000100: 8c66 2dbe 9773 923b 717a c9be 7c23 e3be
00000110: d508 9a3e 0f65 a43e 8ea3 7c3a 240c bebd
00000120: f6df f13e 07ae 02bf c043 24be d768 27be
00000130: 87fc 0b3f 9a2c 993e af8d 1d3c 3b70 ca3e
00000140: 58d4 f23e 9afa 01bf 6190 273e 0f6b 3f3e
00000150: f844 073f b9f3 2d3f 6698 19bf 157f ac3e
00000160: bcff 9fbd 3146 b23d 7764 a73d 676f c13e
00000170: 6c6f 933e 269b 093f d22b 01bf 612c 00bf
00000180: 7e97 96be a15e fdbe 4737 01bf 3aa7 bb3e
00000190: 4d69 bd3e e7d0 cfbe f652 053f bf0b 163f
000001a0: 694c 563e ffd5 423f f33a 98be 48e9 d83e
000001b0: b001 07be fc7f f73e bd68 9d3d ac2b b13e
000001c0: a127 bd3e fe64 243e e9ed 093f 6fe8 f03e
000001d0: 121d 1c3f b309 d33e e8b0 133f 0b46 053e
000001e0: 03ca 83bc 31a1 f63e be62 f3bc e979 12bf
000001f0: 1259 1abe 0d02 01bf a136 943d 3e71 e63e
00000200: 93c1 03bf 1c58 c13e b61d 02bf 18e6 2fbe
00000210: 821e 893a 76c4 143f 0cda c63e e69b fd3d
00000220: 5bb4 dc3e e350 2c3f ab5b cb3e c1b4 b8be
00000230: 4669 a83e 7854 773e 1612 e73e ba6b 583f
00000240: b9f8 5fbe ad6c 8c3f e05c 013e 105a 5fbd
00000250: 5b85 37be 5059 8cbe 3b55 3a3f 9bab e9be
00000260: 76aa 093e 45ec 313e 94cc 263f bbb9 7e3e
00000270: 19a5 34be 9bcd 133e 160c 8dbd f265 283e
00000280: 3939 05be 1e7c 83bd 4402 9e3e acd0 c93e
00000290: ba6b f2be 41b2 a33e 56cb 8cbc 213c cd3e
000002a0: 4d86 ac3e 1639 303e 1108 153e 3745 c3bd
000002b0: f862 f33e 978a dd3e b031 223f e193 9e3f
000002c0: 585d 8b3f 56fd 273f 6f58 54be 67a1 663f
000002d0: e51c 7f3e 0e70 ca3e 25db 5c3e 6a64 343e
000002e0: 751f cebe a037 f3bd 138a 333f dda4 423f
000002f0: 9cd7 19be e918 43bf 701f a4bd 01c1 2ebe
00000300: 603d a7be 2fb2 483f b253 8ebe 6b0b 993e
00000310: b5c7 a2be 38a4 9d3e e5ba 8f3d 9da7 ef3e
00000320: 9007 663e a34b 333e e3a7 9bbd 8889 333f
00000330: c65d 973e 42ae 403e c17a 083f ddc2 c0be
00000340: b465 0d3f 73ee a4bd 7e25 b1be 26d1 9e3d
00000350: d257 073e 2e28 123f 02ca 203f a454 263f
00000360: 7eb0 f73e 21ea 8a3e f595 a73e 5136 8f3e
00000370: 47e7 9e3e cda8 b2be 53fa cb3e 76bc b2bb
00000380: 868a e13e 15b7 c33e 26a4 2dbf b631 633e
00000390: ad81 9e3e f0c1 18be 6b96 d03e 2aaf 9d3e
000003a0: edb3 833d e4e7 02bf ee2c b6be 73b3 263f
000003b0: 9310 24be bee9 143f ac88 303f 6deb b73d
000003c0: 9470 403c 740f 9cbe e6a2 bcbe 61f5 01bf
000003d0: d3eb 833e eea5 0cbe f8a7 2a3f 869e f73e
000003e0: 7ec7 f1bd 3a6d debe d420 9e3c 1310 713e
000003f0: fff6 adbd 3788 73bc 93e5 db3e 3866 263e

l1.bias f4 [8]
0.8572317 0.5082614 0.8693203 0.6841987 0.534007 0.7284657 0.8345072 0.7003933
00000000: 8973 5b3f 6b1d 023f c68b 5e3f a527 2f3f
00000010: afb4 083f ba7c 3a3f 44a2 553f fa4c 333f

l2.weight f4 [8, 8]
1.1580565 -0.57107174 0.3287816 0.6203502 -0.41665912 0.108414754 1.183261 -0.5325494
1.3443596 -0.13949917 0.38222325 1.1700853 -0.1157424 0.68116623 -1.0936152 1.5148871
-0.5863721 -0.24102232 -0.93594784 0.56871784 -0.5098848 0.21148486 0.842892 0.9298881
1.350833 -0.38826165 0.49369952 -0.05428011 -0.42822805 0.69033545 0.096877106 -0.47534826
0.6124697 -0.88828933 -0.0060209837 -1.0500269 0.97415346 0.5901363 1.5145227 -0.6312081
-0.21039732 0.26928195 1.5603584 -0.51732254 -1.1628747 1.1395674 0.39701664 0.35148367
-1.4192829 1.3663638 0.6417562 0.09872591 1.1670184 -0.36011684 1.1031281 1.0045183
1.2420532 1.1559696 0.8200706 1.0085589 1.1256641 -1.3399218 0.34610498 -0.060102277
00000000: 323b 943f c231 12bf 1056 a83e 45cf 1e3f
00000010: 5854 d5be 8e08 de3d 1975 973f 2855 08bf
00000020: fa13 ac3f dfd8 0ebe c4b2 c33e 5bc5 953f
00000030: 5a0a edbd e960 2e3f 95fb 8bbf d2e7 c13f
00000040: 7b1c 16bf 8ece 76be 479a 6fbf 7e97 113f
00000050: cf87 02bf 7d8f 583e c5c7 573f 260d 6e3f
00000060: 19e8 ac3f 3bca c6be 2fc6 fc3e d254 5ebd
00000070: b540 dbbe d3b9 303f 8167 c63d d960 f3be
00000080: d0ca 1c3f ee66 63bf ac4b c5bb 4867 86bf
00000090: 1f62 793f 2c13 173f e1db c13f db96 21bf
000000a0: 6572 57be 53df 893e d3b9 c73f 406f 04bf
000000b0: 14d9 94bf 58dd 913f c445 cb3e abf5 b33e
000000c0: 10ab b5bf 02e5 ae3f 224a 243f cf30 ca3d
000000d0: dc60 953f 3c61 b8be 4d33 8d3f 0e94 803f
000000e0: 99fb 9e3f d0f6 933f 26f0 513f 7518 813f
000000f0: c315 903f 8f82 abbf ac34 b13e ce2d 76bd

l2.bias f4 [8]
0.5877684 0.52172035 0.20045525 0.52081376 0.29557654 0.61142725 0.33600736 0.31361836
00000000: fd77 163f 778f 053f 2444 4d3e 0d54 053f
00000010: cf55 973e 7f86 1c3f 2809 ac3e 9692 a03e

l3.weight f4 [12, 8]
-0.10364841 0.54724646 -1.712548 0.32283938 -1.6709119 -1.3998669 -0.1462426 0.6393776
-1.3890119 -0.35948986 0.5333739 -0.83757204 -1.4058237 -1.2990736 0.75866526 0.3161797
-0.9329645 -1.3410959 -1.1482664 -1.6240876 0.30873427 0.036136627 0.571129 0.40583444
0.45782462 -0.53474885 -0.9362965 0.035628736 0.8541473 -1.3808059 -0.5284822 0.3200873
0.04312189 1.1031363 0.17677459 0.43711913 -1.5962863 0.1971666 -1.4137958 -0.42256787
-0.059797265 -0.55181736 -1.5524305 0.19215858 -0.9205181 0.79873896 0.14271697 0.04066444
0.52475923 -0.09465555 -0.8471139 0.516786 -0.64250946 -0.105707526 -1.2763134 0.5203133
-1.2600801 0.41334063 0.8465014 -0.56848574 -1.0883231 0.5093823 0.2558672 -1.2320089
0.45423198 -0.8702109 0.66198707 -1.5551422 0.28789607 -0.32599723 -0.13436411 -0.32273877
0.054797906 0.099762976 -1.4000163 0.67981637 0.52190423 0.43564367 -1.6552247 -0.8666114
0.40320882 -1.4998078 -0.32849738 0.2705938 0.61641854 0.55206853 -0.22049372 -1.2720714
-1.8179675 0.59330416 -1.4784697 -1.4511423 -0.73810256 -0.15666662 0.12180964 0.42464542
00000000: 9e45 d4bd 5818 0c3f c634 dbbf 344b a53e
00000010: 71e0 d5bf d72e b3bf 9fc0 15be 40ae 233f
00000020: 24cb b1bf 0e0f b8be 318b 083f 1f6b 56bf
00000030: 08f2 b3bf 0b48 a6bf e337 423f 4ee2 a13e
00000040: c3d6 6ebf 08a9 abbf 65fa 92bf 1ae2 cfbf
00000050: 6b12 9e3e 0004 143d 8335 123f 88c9 cf3e
00000060: fd67 ea3e 4de5 08bf 21b1 6fbf 70ef 113d
00000070: 66a9 5a3f 3fbe b0bf 9c4a 07bf 7ce2 a33e
00000080: 94a0 303d 9233 8d3f 6604 353e 14ce df3e
00000090: 1c53 ccbf 0be6 493e 43f7 b4bf d15a d8be
000000a0: faed 74bd e743 0dbf 0bb6 c6bf 38c5 443e
000000b0: 13a7 6bbf 287a 4c3f 6624 123e c18f 263d
000000c0: 9f56 063f c5da c1bd 75dc 58bf 164c 043f
000000d0: 807b 24bf 307d d8bd 3d5e a3bf 4133 053f
000000e0: 4e4a a1bf 62a1 d33e 51b4 583f 4888 11bf
000000f0: 2c4e 8bbf e166 023f 0701 833e 78b2 9dbf
00000100: 1891 e83e 24c6 5ebf fc77 293f e60e c7bf
00000110: 1d67 933e 1ce9 a6be bf96 09be 043e a5be
00000120: c573 603d 8850 cc3d bc33 b3bf 7208 2e3f
00000130: 849b 053f b00c df3e 67de d3bf 3fda 5dbf
00000140: 6371 ce3e b4f9 bfbf cf30 a8be 458b 8a3e
00000150: 9bcd 1d3f 5d54 0d3f 1bc9 61be 3cd3 a2bf
00000160: 29b3 e8bf c8e2 173f 7f3e bdbf 08bf b9bf
00000170: 4af4 3cbf 376d 20be 5577 f93d 206b d93e

l3.bias f4 [12]
0.303426 0.019142633 0.14118345 0.37263227 0.023042075 0.06529801 -0.48763937 -0.046943698
-0.07725447 -0.34711713 0.19406281 -0.25247332
00000000: a75a 9b3e 03d1 9c3c 6592 103e a8c9 be3e
00000010: bcc2 bc3c f7ba 853d deab f9be 0948 40bd
00000020: 9737 9ebd 56b9 b1be 67b8 463e 2f44 81be
